…
\"><pre class=\"language-python\"><code class=\"language-python\">model<span class=\"token punctuation\">.</span>summary<span class=\"token punctuation\">(</span><span class=\"token punctuation\">)</span></code></pre></div>\n<div class=\"gatsby-highlight\" data-language=\"text\"><pre class=\"language-text\"><code class=\"language-text\">Model: &quot;sequential&quot;\n_________________________________________________________________\nLayer (type)                 Output Shape              Param #   \n=================================================================\nconv2d (Conv2D)              (None, 123, 123, 64)      1792      \n_________________________________________________________________\nmax_pooling2d (MaxPooling2D) (None, 61, 61, 64)        0         \n_________________________________________________________________\nconv2d_1 (Conv2D)            (None, 59, 59, 64)        36928     \n_________________________________________________________________\nmax_pooling2d_1 (MaxPooling2 (None, 29, 29, 64)        0         \n_________________________________________________________________\nconv2d_2 (Conv2D)            (None, 27, 27, 128)       73856     \n_________________________________________________________________\nmax_pooling2d_2 (MaxPooling2 (None, 13, 13, 128)       0         \n_________________________________________________________________\nconv2d_3 (Conv2D)            (None, 11, 11, 128)       147584    \n_________________________________________________________________\nmax_pooling2d_3 (MaxPooling2 (None, 5, 5, 128)         0         \n_________________________________________________________________\nflatten (Flatten)            (None, 3200)              0         \n_________________________________________________________________\ndropout (Dropout)            (None, 3200)              0         \n_________________________________________________________________\ndense (Dense)                (None, 512)               1638912   \n_________________________________________________________________\ndense_1 (Dense)              (None, 2)                 1026      \n=================================================================\nTotal params: 1,900,098\nTrainable params: 1,900,098\nNon-trainable params: 0\n_________________________________________________________________</code></pre></div>\n<p>As you can see above, it gives the complete overview of the our Neural Network. It tell that in our network we arew dealing with nearly 1 million neurons.</p
…
