…
&lt;div class=&quot;gatsby-highlight&quot; data-language=&quot;python&quot;&gt;&lt;pre class=&quot;language-python&quot;&gt;&lt;code class=&quot;language-python&quot;&gt;model&lt;span class=&quot;token punctuation&quot;&gt;.&lt;/span&gt;summary&lt;span class=&quot;token punctuation&quot;&gt;(&lt;/span&gt;&lt;span class=&quot;token punctuation&quot;&gt;)&lt;/span&gt;&lt;/code&gt;&lt;/pre&gt;&lt;/div&gt;
&lt;div class=&quot;gatsby-highlight&quot; data-language=&quot;text&quot;&gt;&lt;pre class=&quot;language-text&quot;&gt;&lt;code class=&quot;language-text&quot;&gt;Model: &amp;quot;sequential&amp;quot;
_________________________________________________________________
Layer (type)                 Output Shape              Param #   
=================================================================
conv2d (Conv2D)              (None, 123, 123, 64)      1792      
_________________________________________________________________
max_pooling2d (MaxPooling2D) (None, 61, 61, 64)        0         
_________________________________________________________________
conv2d_1 (Conv2D)            (None, 59, 59, 64)        36928     
_________________________________________________________________
max_pooling2d_1 (MaxPooling2 (None, 29, 29, 64)        0         
_________________________________________________________________
conv2d_2 (Conv2D)            (None, 27, 27, 128)       73856     
_________________________________________________________________
max_pooling2d_2 (MaxPooling2 (None, 13, 13, 128)       0         
_________________________________________________________________
conv2d_3 (Conv2D)            (None, 11, 11, 128)       147584    
_________________________________________________________________
max_pooling2d_3 (MaxPooling2 (None, 5, 5, 128)         0         
_________________________________________________________________
flatten (Flatten)            (None, 3200)              0         
_________________________________________________________________
dropout (Dropout)            (None, 3200)              0         
_________________________________________________________________
dense (Dense)                (None, 512)               1638912   
_________________________________________________________________
dense_1 (Dense)              (None, 2)                 1026      
=================================================================
Total params: 1,900,098
Trainable params: 1,900,098
Non-trainable params: 0
_________________________________________________________________&lt;/code&gt;&lt;/pre&gt;&lt;/div&gt;
&lt;p&gt;As you can see above, it gives the complete overview of the our Neural Network. It tell that in our network we arew dealing with nearly 1 million neurons.&lt;/p&gt;
…
